backend/model/model.pt (torch, 5437 bytes, 5 tensors)

net.0.weight f4 [32, 3]
0.16026954 0.6291011 0.0802402 -0.5601218 0.38355213 -0.021900402 -0.52251965 0.0075272773
0.1903734 0.56283164 -0.36671525 -0.15951645 0.008614187 0.09305954 -0.43347853 0.13682222
-0.60397387 -0.17699154 0.50810134 0.4740387 -0.19515759 -0.32165837 0.40660873 0.47618806
0.24941196 0.34994093 0.34485072 0.07127008 0.047822215 0.44761363 0.15821683 0.7805489
-0.10523714 -0.5011113 0.150593 0.18689482 -0.42645407 -0.54269606 0.5634751 -0.5203526
0.07834339 -0.25313002 0.8531774 0.13199818 -0.18293537 0.62108874 0.2950097 -0.45644757
-0.18748343 0.07275488 -0.61861 -0.33764738 0.03162139 0.3668111 0.06847818 0.30687532
-0.08775811 0.0749155 0.33822998 -0.4378751 0.3234765 -0.3871131 -0.48953828 -0.565737
-0.48643678 -0.109294966 0.37515086 0.008760299 -0.042996414 -0.13744593 -0.25756627 0.045506764
-0.05180224 -0.67116416 -0.40756541 -0.21126713 -0.5991353 -0.26077864 -0.1637828 -0.56593424
0.48506808 -0.63855344 -0.05454475 0.1543864 -0.0706618 -0.10062109 0.5715851 0.14460586
0.15637319 0.43875375 0.4578718 0.4274323 -0.073950976 0.19399047 0.31605214 -0.06034272
00000000: b31d 243e c50c 213f f954 a43d 2464 0fbf
00000010: f260 c43e 7968 b3bc d9c3 05bf 61a7 f63b
00000020: 3ff1 423e bc15 103f 1ac2 bbbe 4858 23be
00000030: 8522 0d3c 0096 be3d e6f0 ddbe 201b 0c3e
00000040: 089e 1abf 453d 35be ee12 023f 33b5 f23e
00000050: 64d7 47be 68b0 a4be 052f d03e ecce f33e
00000060: d965 7f3e 752b b33e 4690 b03e 0cf6 913d
00000070: 3ae1 433d 9d2d e53e 9803 223e 0dd2 473f
00000080: 9286 d7bd d548 00bf 0d35 1a3e 5b61 3f3e
00000090: 3058 dabe 21ee 0abf e73f 103f d435 05bf
000000a0: 8072 a03d 429a 81be d669 5a3f 882a 073e
000000b0: 6953 3bbe acff 1e3f 830b 973e 7fb3 e9be
000000c0: a8fb 3fbe 8300 953d 3a5d 1ebf 1ee0 acbe
000000d0: 6e85 013d aace bb3e 4a3e 8c3d c31e 9d3e
000000e0: 86ba b3bd 4c6d 993d 7b2c ad3e 2a31 e0be
000000f0: b69e a53e b033 c6be c3a4 fabe 24d4 10bf
00000100: 3e0e f9be 0ad6 dfbd c613 c03e 5b87 0f3c
00000110: 021d 30bd a0be 0cbe badf 83be 4d65 3a3d
00000120: 962e 54bd 6ad1 2bbf 6aac d0be 6956 58be
00000130: ee60 19bf c784 85be aeb6 27be 11e1 10bf
00000140: d85a f83e 3d78 23bf 516a 5fbd 7817 1e3e
00000150: 22b7 90bd 6e12 cebd 6753 123f 8f13 143e
00000160: 4b20 203e 55a4 e03e 2c6e ea3e 68d8 da3e
00000170: 9c73 97bd 70a5 463e 96d1 a13e ee29 77bd

net.0.bias f4 [32]
-0.2034319 -0.6727941 0.47648448 -0.25586492 -0.8683456 -0.43314072 -0.23256473 -0.36159137
0.39837041 -0.19493665 1.0742509 0.042658616 0.043335397 0.6075309 -0.5456533 -0.14657539
0.18490648 -0.42731223 -1.1918988 0.20015082 -0.75146395 0.11411567 0.40631893 0.46780962
-0.512362 0.2835276 -0.49997297 0.15555266 0.3593807 -0.42589855 -0.15076657 -0.018932054
00000000: 7450 50be 3c3c 2cbf c6f5 f33e ba00 83be
00000010: e64b 5ebf 9fc4 ddbe 7325 6ebe 8122 b9be
00000020: 35f7 cb3e 799d 47be 0e81 893f cdba 2e3d
00000030: 7580 313d 2587 1b3f efaf 0bbf dc17 16be
00000040: 2058 3d3e abc8 dabe 2490 98bf 56f4 4c3e
00000050: f15f 40bf 7ab5 e93d 0909 d03e be84 ef3e
00000060: 282a 03bf 882a 913e 75fc ffbe 3249 1f3e
00000070: bf00 b83e 600f dabe 8d62 1abe 6517 9bbc

net.2.weight f4 [16, 32]
0.17675412 0.06074146 -0.087467104 -0.01401626 0.05447829 -0.15041402 -0.06528341 -0.090610065
-0.10129522 0.1481875 0.058705445 0.03046136 0.08784625 -0.19510087 -0.0070704455 -0.035508778
0.14464174 -0.18285397 -0.11457744 0.11405916 0.117173806 -0.17872795 -0.1663977 0.2334003
0.02348182 0.02377225 0.013968186 0.02471723 0.09065322 0.12748075 0.06584232 0.14753947
-0.80296516 0.2797474 -0.25384134 0.07129508 0.07027267 0.14823717 -0.043110922 0.25405982
0.56426173 -0.17263666 -0.08559555 0.077354915 -0.09934399 0.01887387 -0.11813845 -0.19352004
-0.042939145 0.21230038 0.6360465 0.069071025 0.18598491 -0.085807726 -0.11025495 0.02550851
0.1266033 0.080165535 -0.13286762 -0.37893242 -0.5418684 -0.32984817 0.28390434 -0.51999605
0.01856837 0.009658626 -0.1009008 0.26880416 0.06270551 0.25433338 0.13160893 0.1709089
0.10943123 0.111984126 -0.29741466 -0.07219732 0.17670026 -0.43062818 -0.0045788586 -0.0031052367
0.0659124 0.09363869 0.057055525 0.1345765 0.03249847 -0.29235744 0.035852615 0.28964582
-0.44286448 0.0151156215 0.01421484 -0.039160714 -0.18866313 -0.010131073 -0.18780302 -0.054485273
-0.17607024 0.15225045 0.036059037 -0.049143035 -0.23549595 0.1087369 0.17744692 -0.13068065
0.06565165 0.13903153 0.026430245 -0.18811865 0.12934802 -0.2634303 0.1316592 0.003373917
-0.07794021 0.1471349 0.17751509 0.20616342 -0.029540876 0.058344804 -0.08812969 0.21155456
-0.09863717 -0.054732088 0.17546846 0.06894625 0.015631104 -0.19011033 -0.03407563 -0.1607244
-0.05700368 -0.047894914 -0.10690701 -0.17968868 -0.09714994 -0.19153655 0.00970025 -0.16321413
0.13890941 -0.013301158 -0.12461483 -0.12465174 -0.16598602 0.11576764 0.001966589 -0.13568215
-0.0011513138 -0.046351504 0.11902217 0.041731905 0.13265936 0.13254113 0.14978239 0.045122165
-0.16712433 -0.13612325 -0.1424154 -0.06715419 0.07060756 0.118263066 -0.17352049 0.06158252
0.020969575 -0.16422667 0.11290462 0.23952079 -0.28981942 -0.10312967 -0.021329058 0.106304936
0.011683676 -0.144049 -0.051671427 -0.18401995 0.13893592 -0.16816537 -0.03258221 0.02825028
0.079295695 -0.15429336 -0.12129893 0.17664881 0.04082891 -0.04454574 -0.024452489 0.48731154
-0.3820056 -0.15132858 0.10160288 0.1360188 0.12332021 0.051556487 0.04362508 0.13518494
-0.0051252893 -0.413746 0.2842416 0.36588708 -0.24719025 -0.34151652 -0.139359 -0.063097
-0.18051958 0.1622068 0.20097816 0.03727153 0.12883748 0.017117163 -0.22405101 -0.28048763
-0.084940076 -0.0388089 0.63512576 0.27342445 0.1251476 0.21011554 0.123086706 -0.0049839364
-0.033434317 0.16628292 -0.07324469 -0.29201642 -0.030198302 0.15964693 0.024283698 -0.08587176
0.08165543 0.037644207 0.0067503634 0.083286226 0.30012944 0.21784082 -0.11939002 -0.19886503
0.032337114 -0.13348316 0.10850452 -0.009137924 0.043940656 0.2183313 0.29595053 0.15864469
0.0012571084 0.2547062 0.15207787 0.12594467 0.20239176 -0.10953728 0.2125782 0.15864663
0.17741859 -0.08928752 0.09206095 0.03194224 0.042325076 0.07148932 -0.16137215 -0.03088141
00000000: 08ff 343e 0acc 783d f421 b3bd 75a4 65bc
00000010: a124 5f3d 2206 1abe 4fb3 85bd c591 b9bd
00000020: de73 cfbd 77be 173e 1f75 703d 1a8a f93c
00000030: bce8 b33d 86c8 47be 32af e7bb a771 11bd
00000040: f71c 143e 123e 3bbe 94a7 eabd d997 e93d
00000050: d2f8 ef3d 7604 37be 2964 2abe 7d00 6f3e
00000060: f25c c03c 06be c23c d2da 643c ca7b ca3c
00000070: 65a8 b93d 508a 023e 57d8 863d 9614 173e
00000080: 208f 4dbf 0d3b 8f3e 7ef7 81be 2803 923d
00000090: 1eeb 8f3d 7ccb 173e 1495 30bd 2114 823e
000000a0: 7573 103f aac7 30be b84c afbd 416c 9e3d
000000b0: dd74 cbbd 609d 9a3c 92f2 f1bd 1e2a 46be
000000c0: f5e0 2fbd 4565 593e f2d3 223f 1c75 8d3d
000000d0: d472 3e3e f6bb afbd 59cd e1bd 39f7 d03c
000000e0: 4ca4 013e d42d a43d 730e 08be 6e03 c2be
000000f0: e3b7 0abf dce1 a8be e95b 913e 761e 05bf
00000100: b21c 983c 373f 1e3c 14a5 cebd b3a0 893e
00000110: bf6b 803d fc37 823e 7ec4 063e be02 2f3e
00000120: 7b1d e03d ef57 e53d bc46 98be 30dc 93bd
00000130: eaf0 343e 4c7b dcbe 400a 96bb 3a81 4bbb
00000140: 15fd 863d a4c5 bf3d 0eb3 693d 6cce 093e
00000150: 1e1d 053d e0af 95be 31da 123d 754c 943e
00000160: 22bf e2be 83a7 773c 5ce5 683c fc66 20bd
00000170: e830 41be cdfc 25bc 6f4f 40be f32b 5fbd
00000180: c24b 34be 8be7 1b3e a4b2 133d 354a 49bd
00000190: da25 71be 74b1 de3d a5b4 353e 26d1 05be
000001a0: 5f74 863d 485e 0e3e 3e84 d83c 2da2 40be
000001b0: cf73 043e 56e0 86be abd1 063e ef1c 5d3b
000001c0: 1e9f 9fbd 88aa 163e 84c6 353e 811c 533e
000001d0: b5ff f1bc f6fa 6e3d 577d b4bd c2a1 583e
000001e0: 4902 cabd c12e 60bd 01ae 333e b133 8d3d
000001f0: cd0c 803c 48ac 42be e392 0bbd f094 24be
00000200: b17c 69bd 752d 44bd 10f2 dabd 4f00 38be
00000210: 8cf6 c6bd 2822 44be cced 1e3c 9b21 27be
00000220: 453e 0e3e 1aed 59bc 0f36 ffbd 6949 ffbd
00000230: 3df8 29be 9617 ed3d e3e1 003b 43f0 0abe
00000240: aee7 96ba 13db 3dbd e5c1 f33d 13ef 2a3d
00000250: dbd7 073e ddb8 073e 8e60 193e 05d2 383d
00000260: a422 2bbe e563 0bbe 58d5 11be 2388 89bd
00000270: b29a 903d e833 f23d 5baf 31be f43d 7c3d
00000280: 63c8 ab3c 092b 28be 8a3a e73d f044 753e
00000290: 3663 94be a635 d3bd 47ba aebc 67b6 d93d
000002a0: e46c 3f3c 9581 13be 6ba5 53bd ba6f 3cbe
000002b0: 3845 0e3e 8b33 2cbe ec74 05bd 226d e73c
000002c0: c865 a23d 14ff 1dbe 936b f8bd 6de3 343e
000002d0: 373c 273d 9875 36bd 9650 c8bc e680 f93e
000002e0: 3d96 c3be e1f5 1abe 2c15 d03d 8348 0b3e
000002f0: 4e8f fc3d e52c 533d 36b0 323d ec6d 0a3e
00000300: 0bf2 a7bb 84d6 d3be 1d88 913e 8d55 bb3e
00000310: 711f 7dbe 41db aebe 20b4 0ebe 0039 81bd
00000320: 20da 38be 8a19 263e 38cd 4d3e 08aa 183d
00000330: f9ed 033e 4b39 8c3c a16d 65be 139c 8fbe
00000340: 10f5 adbd 15f6 1ebd 9a97 223f 4afe 8b3e
00000350: b126 003e 8728 573e e214 fc3d 4a50 a3bb
00000360: 6cf2 08bd 1246 2a3e 5001 96bd 2d83 95be
00000370: 6e62 f7bc 7c7a 233e 9bee c63c 89dd afbd
00000380: f63a a73d d030 1a3d 2732 dd3b f891 aa3d
00000390: 91aa 993e aa11 5f3e c182 f4bd 46a3 4bbe
000003a0: ec73 043d cfaf 08be 9e37 de3d 3bb7 15bc
000003b0: 1efb 333d 3e92 5f3e d486 973e c173 223e
000003c0: 8fc5 a43a da68 823e 4dba 1b3e a4f7 003e
000003d0: c93f 4f3e 1555 e0bd 1aae 593e 4374 223e
000003e0: 38ad 353e 60dc b6bd 748a bc3d ded5 023d
000003f0: 0f5d 2d3d fe68 923d be3e 25be 03fb fcbc

net.2.bias f4 [16]
-0.006797244 0.19609542 -0.00060843496 -0.12517692 -0.112504005 0.057049133 -0.3897587 -0.20046493
-0.2662056 0.19527797 -0.15670928 -0.16267414 -0.23835687 0.10019728 0.15840851 0.15745515
00000000: 6abb debb 3dcd 483e 617f 1fba 612e 00be
00000010: 8068 e6bd 5aac 693d 748e c7be ae46 4dbe
00000020: 1a4c 88be f3f6 473e 6678 20be 0d94 26be
00000030: d313 74be 3b34 cd3d d735 223e ec3b 213e

net.4.weight f4 [1, 16]
-0.075551614 -0.44088233 -0.30054095 -0.09234366 0.10125857 -0.06845135 0.81959146 0.20466164
0.15056945 -0.049755517 -0.1218951 -0.45306116 -0.90427047 -0.1501671 -0.1609839 0.1566892
00000000: ceba 9abd 54bb e1be 81e0 99be ac1e bdbd
00000010: a760 cf3d 3930 8cbd bfd0 513f d292 513e
00000020: e12e 1a3e 71cc 4bbd 23a4 f9bd a2f7 e7be
00000030: 457e 67bf 67c5 19be f7d8 24be 2273 203e
