backend/model/model.pt (torch, 5044 bytes, 5 tensors)

net.0.weight f4 [32, 3]
00000000: bf43 1ebe 1b0c 0a3f 9ecb 83be 2a9f 043f
00000010: 0627 0d3f d839 333e 5bb8 943e 5d2a fbbe
00000020: d472 c23e c6e3 16bf c57e 6e3e 250b 97be
00000030: b57b c13e cc40 2a3d 866d fb3e cebb 923e
00000040: 21e0 eabd 3414 913e ecdc aebe af12 1a3f
00000050: 18c0 6c3e 948c e13e 227f c33e 0f95 2f3e
00000060: 5119 f33e 51f1 07bf d5fe afbe ba2d a6be
00000070: 85d5 103f 0c2a 3f3d e4ed 0c3f 7287 1dbe
00000080: fb3a 4b3e d512 86be a6b6 853e ed65 073e
00000090: f700 263e 8af9 e0be cb9d fcbe e61d 233f
000000a0: 54f7 30be cdd1 543c f23a 083f 46c3 1ebe
000000b0: 8144 063f 0660 cb3e 961c 04bf cd2b 27bd
000000c0: 8b27 0ebf ccc3 3abf 4f7d d7be a95e 743e
000000d0: 8818 61be ae23 25bf 64e4 36bd cbb0 41bf
000000e0: 02c3 21bf 6332 0c3f a0be b63e 8b0e 18be
000000f0: 50eb 8abe 2e56 ce3c 7035 063f 46f0 92be
00000100: 7d0c a3be 4c8f abbd be0c 3e3a 8f0f 9fbe
00000110: 0427 0d3e 4eac 02be b78d 0b3f af7e 043f
00000120: 421d 1e3e aea6 c73e cc5d 14bf 32d5 c23d
00000130: e65d edbe 6ea5 79bd c15d 063e e21c b9be
00000140: 57bb 7a3e 676b ea3e 2316 1c3e 7426 b4be
00000150: 3344 24bc b5a4 e83e 73ce f23e e3da 39bf
00000160: 99e8 253f ddd3 f8be ac77 c63e 76ac c7be
00000170: 699e 173f 9d27 05be b3e3 45bf 99c1 e3be
-0.1545553 0.5392472 -0.25741285 0.51805365 0.5513767 0.17502534 0.29046902 -0.49055758
0.37978232 -0.58941305 0.23290546 -0.2950069 0.37789693 0.0415657 0.49106997 0.2865891
-0.114685304 0.28335726 -0.34152925 0.6018476 0.23120153 0.44052565 0.38182932 0.17146705
0.47480252 -0.53102595 -0.3437411 -0.32456762 0.56575805 0.04667096 0.5505049 -0.153837
0.19846718 -0.26186243 0.26115912 0.13222475 0.16211306 -0.43940383 -0.49339136 0.63717496
-0.17281848 0.0129894735 0.53214943 -0.15504178 0.5244828 0.39721698 -0.5160612 -0.040813256
-0.5552909 -0.7295501 -0.4208779 0.23864235 -0.21982014 -0.6450757 -0.044651404 -0.7566039
-0.63188183 0.54764384 0.3569231 -0.14849298 -0.27132654 0.025187578 0.5242529 -0.2869894
-0.31845465 -0.08376941 0.00072498235 -0.31066558 0.13784415 -0.12761042 0.54513115 0.51755804
0.15440848 0.38994354 -0.5795562 0.0951332 -0.463607 -0.06094878 0.13121702 -0.36154848
0.24485527 0.45785066 0.1524282 -0.35185587 -0.010026026 0.45438161 0.47423133 -0.7259962
0.6480804 -0.4859914 0.38763177 -0.38998765 0.5922609 -0.13003393 -0.77300566 -0.4448364

net.0.bias f4 [32]
00000000: b5cf 283f 497a 5abe 8da3 e2be 9cdc 3f3f
00000010: 777e 2cbf 0ef2 a23e 5775 b53e 9897 ff3e
00000020: a9ca 043e 8f8c ef3e 8b92 043e b9f4 3fbd
00000030: e852 c73d 3641 4a3e 86aa a03d 30b6 1fbf
00000040: 5bf9 2a3f f694 ebbe f055 e9be bc5e 9dbf
00000050: b8b5 b83d 0a61 ce3e c617 343f a599 f53e
00000060: 76b2 cc3d 11a2 463f edd0 823e cd4a 313f
00000070: 224d 2bbf 5a36 e838 b9ad 68be 17bd 28bf
0.65941936 -0.2133571 -0.44265404 0.74946 -0.6738047 0.31825298 0.35441086 0.49920344
0.12967934 0.46786925 0.12946527 -0.046864245 0.0973261 0.19751438 0.07845025 -0.6238737
0.66786736 -0.46012086 -0.45573378 -1.2294536 0.09019035 0.4030841 0.70348775 0.47968784
0.09994976 0.77591044 0.25550023 0.6925476 -0.6691457 0.00011072746 -0.2272252 -0.6591353

net.2.weight f4 [16, 32]
00000000: 4be4 693e f9c3 0f3e 1085 afbd bde1 273e
00000010: 91ac ca3d 08c7 43bf ac6a b53d 274e 2c3d
00000020: bb61 a0be 6386 f03c ccd7 80bd 2fd0 813d
00000030: a50e d5bd 87e6 133d 7cb3 22bf 21ec 50bf
00000040: 6cc9 263e c955 213d a2a2 95bd 4bd2 413e
00000050: 9960 5abd eb1a a33e 3e9c 0b3f a613 6fbe
00000060: a2f2 033e 506c 253e 66bc 433e b80f 183b
00000070: 667b e7bd 134a 9b3e 9538 2c3d 1411 7bbe
00000080: 577d 8b3e 9408 3b3c 7610 373e 8ccb 58bd
00000090: 357d 493d a372 a63d b1ce 71be 8d34 14bc
000000a0: 58fe 74bc 8319 06be decf 1fbe df79 90be
000000b0: 3355 3d3e cf72 083e b42f dabd 1cde 33be
000000c0: c091 383e a599 a1be 7856 74be e2cb a2be
000000d0: f46e 3abd dba5 253d 0df1 273e 0db2 2a3e
000000e0: 00ef 4b3e 30f3 3e3c 7c65 4d3e 079e 003e
000000f0: 6afa 95be 3c40 de3d 9874 953d 55d0 92be
00000100: a237 203e 0826 bbbd 1b3f dbbd e4ff 3f3e
00000110: 3409 f0bd 5815 1c3e cc2e 033e a87e 473e
00000120: b79c 4fbe a918 a0be b62b 263e 4bb8 7ebd
00000130: 80ff 353e 119a 2e3e 15ca 83bd f22d c73d
00000140: d1dc 273e 4868 7fbe 9c56 6e3d f10c 9a3c
00000150: 70a7 b5be 515c a6bd b075 23bd 6842 26ba
00000160: 2143 1c3d 1636 f03d 91fe 3c3e 4007 203e
00000170: ba8c 21be 9316 a5bd 6e4a c8bd bb92 1ebd
00000180: c9ae 0bbe c66a 92bd 9f85 13be dc50 96bd
00000190: 9ee3 983d 152c 023d 52a4 a5bd cfd5 293c
000001a0: b3f4 71be d488 ab3d 2366 433d 7455 243e
000001b0: 6217 7ebc ebda 0c3e 0264 d73b 3ce5 8b3c
000001c0: f759 5d3e 078a 5cbd 46e7 043e 3a7a 6dbc
000001d0: 9f58 0f3e e57e 52be c55f 09bc 3607 953c
000001e0: 5ec5 363e d92c 7f3d 694c b6bd d1ea 23bd
000001f0: 4f30 5b3d 2538 9b3c 0acc 0ebd 032c a6bc
00000200: 05d8 c8bd cca9 0fbc 760e 2fbb 8857 223e
00000210: a33a 033d e06d 5e3c 1f25 90bc f527 2a3e
00000220: f6e1 e9bd fa11 acbc 4a9d f63d aced 9fbc
00000230: 42be f43d 2714 10bd 22fa 053e 8624 ed3d
00000240: ca73 0f3e 57fb 2bbe 7ff8 f6bd db72 48be
00000250: a0ec 27bb 4e48 08be 49c8 5dbe 177d 103e
00000260: 5136 f53d 65cc 173e 7761 7b3d 86c2 063e
00000270: c4d4 523d 9f1d d1bd 7c0a ecbd c2de 4d3d
00000280: b35a c3bd 598c cb3c bff9 213e 4c7b 8e3e
00000290: 4c36 103e 1567 dfbd 3a9f 723c ec52 063e
000002a0: 25b4 eabd fc30 53bd cd77 bbbc fee3 02be
000002b0: d809 95bc 462c cd3b 30fa 923c 9f5f 423e
000002c0: 8d08 c0bd a0a3 07be 8630 66be 033b de3d
000002d0: 0ff5 bbbd a985 c3be b837 da3b f24f 0d3e
000002e0: 5ef4 223e cac7 943d 9c23 26be 1e7e f4bd
000002f0: cfff 363d 826a 953e a6ac fdbb e0c9 2dbf
00000300: a466 86be 2d74 bcbe 8b6d ba3e f262 6bbd
00000310: af6d 8cbf 1d0f d3be 886a 41be 394a abbe
00000320: 211b 03bd 7eeb 7a3e 1eaf b13e ef10 8ebe
00000330: 2976 cc3d 76d9 46bf 0138 d43e 8e34 3dbe
00000340: a116 923d d3ac 003c 175a 513e 8876 1a3f
00000350: 2ad1 753e 9a6b 34be a0c5 a03e 3ff8 a43d
00000360: 7963 4b3d 527c 153d 6165 273d 8484 a83c
00000370: ca9d adbd ea15 9fbd 0ae2 27bf 2ce6 83bd
00000380: aa9e bfbd 6035 eb3d 4cc9 9e3d 1e77 b6be
00000390: 5208 d8bd 28a7 9b3d 38ae 18bd cca7 a43c
000003a0: e24b 3f3e 2321 5c3e 55ab 303e def1 02be
000003b0: f562 5fbe 67de 853d d131 e83d c10e 62bd
000003c0: 4c8c ccbb 0151 c63d 2bf3 313e 86e0 953d
000003d0: 8411 98bd 1ea1 033d 7fdf 053e daec f8bb
000003e0: 69a7 ed3d f622 303e 5297 0fbd 2617 cf3d
000003f0: 333c 423e 5372 babe d38c 963d 4a1b 46bd
0.22840993 0.14039601 -0.085703015 0.16394706 0.09896196 -0.7647557 0.08858237 0.04206672
-0.31324562 0.029360956 -0.0629116 0.06338536 -0.10403184 0.03610852 -0.6355512 -0.81610304
0.16287774 0.03938845 -0.0730641 0.18927877 -0.05331478 0.31856474 0.5453528 -0.23347339
0.12885526 0.16154599 0.19114837 0.0023202728 -0.11302833 0.30329952 0.04204615 -0.24518234
0.27244064 0.011415619 0.17877373 -0.052928492 0.049191672 0.08127334 -0.23614003 -0.009045732
-0.014953218 -0.1309567 -0.15606639 -0.2821798 0.18489532 0.13325046 -0.1065363 -0.17565197
0.18024349 -0.31562534 -0.2386111 -0.31796175 -0.04551597 0.040441375 0.16400547 0.16669483
0.1991539 0.01165466 0.20058244 0.12560283 -0.29292613 0.108520955 0.07297629 -0.2867457
0.15646222 -0.09138113 -0.10705396 0.18749958 -0.11720505 0.15242517 0.1281082 0.1948191
-0.20274626 -0.31268814 0.16227612 -0.062187474 0.17773247 0.17050959 -0.064350285 0.0972556
0.16392829 -0.24942124 0.058188066 0.018804999 -0.35479307 -0.08123077 -0.039907157 -0.0006342293
0.038149957 0.11729066 0.18456484 0.15627766 -0.15776339 -0.08060946 -0.09779821 -0.03871415
-0.13640894 -0.07149272 -0.14406441 -0.073396415 0.074652895 0.03178032 -0.08087982 0.010365917
-0.23628502 0.08375707 0.047704827 0.16048223 -0.015508505 0.13755386 0.006573201 0.01707708
0.2161635 -0.05384257 0.12978849 -0.014494473 0.1399865 -0.20556219 -0.00838465 0.018191915
0.17848727 0.06229863 -0.08901293 -0.04001886 0.053512868 0.01894767 -0.034862556 -0.020284658
-0.098068275 -0.00876851 -0.00267115 0.15853703 0.032038342 0.013576001 -0.017595826 0.16616805
-0.11420052 -0.021004666 0.12041719 -0.01952251 0.11950351 -0.03517547 0.130837 0.11579232
0.14009014 -0.16795097 -0.120591156 -0.19575064 -0.0025623217 -0.13308832 -0.21658434 0.14110218
0.11973251 0.14824064 0.061372247 0.13160142 0.05147244 -0.10210728 -0.11525437 0.050261267
-0.09538784 0.024847196 0.15817927 0.27828443 0.14083213 -0.10908333 0.01480847 0.1311757
-0.11460141 -0.051560387 -0.022884274 -0.12782285 -0.01819317 0.0062613813 0.017941564 0.18981789
-0.09376631 -0.13246012 -0.22479448 0.10851099 -0.091776006 -0.38187912 0.006659474 0.13800028
0.15913531 0.07264669 -0.16224521 -0.119381174 0.04467755 0.29182822 -0.0077415286 -0.6788616
-0.26250184 -0.36807385 0.364117 -0.05746741 -1.0970973 -0.41222468 -0.18888295 -0.33455065
-0.032008294 0.24503896 0.34703916 -0.27747294 0.09983475 -0.7767557 0.41448978 -0.1847708
0.07133222 0.0078537045 0.20444523 0.60337114 0.24005571 -0.17619172 0.31400776 0.08055162
0.04965541 0.036495514 0.040868167 0.020571 -0.084773615 -0.07767852 -0.65579283 -0.06440386
-0.09356435 0.1148479 0.07753238 -0.35637754 -0.10548462 0.07600242 -0.037275523 0.020099543
0.18681291 0.21497016 0.17252858 -0.12787578 -0.21815093 0.065365605 0.11337627 -0.05518985
-0.0062423106 0.09683419 0.17377917 0.07318215 -0.07425216 0.032136075 0.13073538 -0.0075965943
0.116041966 0.17200837 -0.03505642 0.10111837 0.18968277 -0.36415347 0.07351079 -0.04836587

net.2.bias f4 [16]
00000000: 4435 893e 0c27 5a3e f6c9 2f3d e13b 0c3e
00000010: c270 3cbe a366 01be a088 3abe 2c99 853d
00000020: cd47 edbd a6c6 c73d fe73 343e a8e4 01bd
00000030: d95e 7e3d 9a2f 30bd c9b1 8dbe 232d 723c
0.2679845 0.21303958 0.042917214 0.13694717 -0.18402389 -0.12636809 -0.18216181 0.06523356
-0.115859605 0.09754686 0.17622373 -0.031712204 0.062102173 -0.043014146 -0.27674702 0.014781269

net.4.weight f4 [1, 16]
00000000: dcde a8be 239a cb3e df96 be3e 580e 723e
00000010: fb7f 0a3e 547d 2a3e 7df5 41bf 815e 43be
00000020: 75cc 063f fe9c 993d 503d 033f a486 9c3e
00000030: f4e4 873e 9ced 9cbe b5d7 4fbf d318 5e3f
-0.32982528 0.39766034 0.3722448 0.23638284 0.13525383 0.16649371 -0.7576521 -0.19079019
0.52655727 0.07500647 0.5126543 0.30571473 0.26541865 -0.30650032 -0.8118852 0.8675663
